Emnist/ByPasser.onnx (onnx, 1056 bytes, 2 tensors)

conv1.weight f4 [3, 1, 3, 3]
0	0x3ea0ba63	0.31392202
1	0x3e9d3e03	0.30711374
2	0xbe9900dc	-0.29883468
3	0x3d56e820	0.052467465
4	0xbe0de793	-0.1385787
5	0xbe452d0b	-0.19255464
6	0x3e6db86e	0.23214886
7	0xbe93fe10	-0.28904772
8	0xbe8cd4a2	-0.27505976
9	0x3e895727	0.26824304
10	0xbe96be12	-0.29441887
11	0xbe4b2850	-0.19839597
12	0xbe773f43	-0.24145226
13	0xbe3eee83	-0.18645673
14	0x3d2007eb	0.03907005
15	0x3e5404f8	0.2070502
16	0x3e71d1a3	0.23615126
17	0xbd97f43b	-0.0741963
18	0x3e06fed6	0.1318315
19	0x3e582d30	0.21110988
20	0xbe3a49be	-0.18192193
21	0xbd2c4000	-0.042053223
22	0xbe3ef7c6	-0.18649206
23	0x3dafc9eb	0.08583435
24	0x3e886e0b	0.26646456
25	0x3da67b30	0.08128965
26	0xbd2cd64b	-0.042196553

conv1.bias f4 [3]
0	0xbe8055d0	-0.2506547
1	0xbe881a3c	-0.26582515
2	0x3dcb95d0	0.09940684
